repository_manager/zkml_server/tf/create_model/simple_model.onnx (onnx, 32217 bytes, 2 tensors)

simple_cnn_1/output_probs_1/Cast/ReadVariableOp:0 f4 [784, 10]
00000000: 562c 4dbd 8d70 6dbd d002 37bc 6f15 613d
00000010: cf28 803d 1f6f fabb 59de 1fbd 5ff2 76bd
00000020: 9b00 963d e61d 943d a110 ab3d 80ba 24bd
00000030: 7e55 56bd 3750 513d 52b3 5e3c efa4 89bd
00000040: 906d 2dbc 027c a0bd 1d89 8bbd be4e 25bd
00000050: 8d8c 8e3d a5e9 86bd bc0e 27bd b799 13bd
00000060: dc83 acbd 571e fd3c 3eb3 973d 5506 27bd
00000070: ca99 22bd fb64 c6bc f6de 7e3d f37c 593b
00000080: ac40 e53b 0240 14bd c9ae 4e3d 3795 39bc
00000090: efc2 d2ba f051 cd3b 294e 553c 64f2 413c
000000a0: 39d5 d23c 74e0 82bd e2a4 28bc 8457 5f3d
000000b0: af32 6ebd 7b32 b73c 8507 9abd fe6c 9bbd
000000c0: 907f da3c 5a79 b3bd 2f1c a5bd f9c6 243c
000000d0: 9b34 493d 93a4 aa3d c687 86bd 6304 38bb
000000e0: 5a81 b5bb f652 613d d033 a0bb 9f90 31bd
000000f0: 80a8 cd3b 2cbe 40bd 1264 d93c 0562 a23d
00000100: e1a4 f3bc 0a2d 25bd a62e 61bd 54e6 793d
00000110: 4906 213d 9d89 aebd 75ec ebbc cdc6 76bd
00000120: dfd6 1cbc 653f 86bd da30 64bc 3c94 e33b
00000130: d96b ac3d 2d78 cabb 6e56 ad3d 1d5d 713d
00000140: c9f2 9abd 5aff 85bd f735 c33c a960 463c
00000150: 440e 53bd e080 1f3d 266d 4b3d 8449 c83c
00000160: f0cf f43c d31a 58bc 11b3 39bd eae4 85bd
00000170: f91e 3cbd c491 5cbd b42e 963d 2fc6 3ebd
00000180: 0d9d a3bc 2945 77bc b2f2 5dbd 5448 98bd
00000190: c987 ab3d 69cc 80bd 206c 923d 43b3 4a3c
000001a0: f823 4c3b 05b6 4d3d 269f bebc 515a 59bd
000001b0: 7d54 9a3c 9214 80bd 5b1c f7bb 14e3 44bd
000001c0: b434 91bd 94aa b3bc 44ed 8b3d 9959 b23c
000001d0: 5def a7bd 2af4 07ba 6125 18bd 31ef a1bd
000001e0: 8543 a33d dc71 6d3d b8db 17bb 3850 4a3d
000001f0: cb1e 1dbc c3e0 323d 6ad1 75bc c765 a53d
00000200: 13b9 2c3d 3641 983c 4a3b 363d 9910 f13c
00000210: 25f3 47bd 2259 b23c 2020 473c cfea 83bd
00000220: c14b 0c3c d64f 19bd 94d2 b1bd 7ac3 87bd
00000230: f2bb c2bc d884 1cb9 1792 553d da92 843d
00000240: a1e6 603d 4f13 4abd 319f f9bc 0774 073d
00000250: 981b a23d e811 bbbc 88a8 dfbc 17b8 f6bc
00000260: bdf3 10bd 810a 803d dd7d 1d3d 210b e1bc
00000270: fe10 2f3c 51ab 683d d261 37bd 354b 743c
00000280: 699e bc3c 02d8 99bd 6c78 bc3c aa97 773d
00000290: d37e 5dbd 2c97 c83c 0036 27bd 1d0f 9f3d
000002a0: 2e30 a23d c034 803d 325a 223d 9e75 90bc
000002b0: 4ae6 97bd 074b 813d 4215 50bc bfa9 6e3d
000002c0: 4de6 003d a93c 44bd 7797 353c fc4a 8b3c
000002d0: 9c8d 8abc fb6e e63c b248 ef3c 63c1 23bd
000002e0: 7ed3 9cbd 1ff9 803d 0382 ac3d aee7 62bc
000002f0: 29e6 2c3d 9896 833d 86f9 543d cf35 56bd
00000300: 52e8 a0bd 5e59 4c3d 22b0 afbd 9078 013d
00000310: 23fa 3c3d c817 95bd 10e0 82bd 879b 7d3d
00000320: 640b 14ba f807 94bc 7e09 6a3c 3413 343d
00000330: 63ef 953d 039d c43c 9da4 00bd e856 ceb9
00000340: 2848 063c e42e c9bb 3da9 1f3d be44 043b
00000350: 370b 7cbd f688 28bd d402 93bd 957f f8bc
00000360: a70f 8c3d 8d99 823d 8857 b3bd c1b4 ed3c
00000370: 6b01 9b3c 084a 4939 6327 14bd 341b 623d
00000380: 7461 b6bb 0d58 803d e8c7 973d 5de9 92bd
00000390: a633 b03b 10b4 ac3d 3a63 18bb a536 90bd
000003a0: b712 243d 627c bf3c fc73 61bd cb19 2c3d
000003b0: 5b40 ee3b 2e03 a0bc e596 b9bb 214a 84bd
000003c0: f16f 653c 1e9f 10bb 15a5 d63b 24d9 83bd
000003d0: a8cc 8e3a 2315 0f3c dc19 abbc edbb 9ebd
000003e0: 0cfc 7abc d926 823d f000 b2bb 7e59 abbd
000003f0: 5db5 e23c d5fb 94bd e043 733c 6dc1 993d
-0.05009111 -0.057968665 -0.011170104 0.05495208 0.062577836 -0.007642641 -0.039030407 -0.060289737
0.07324334 0.07232265 0.08352781 -0.040216923 -0.052327625 0.05110189 0.013592558 -0.06720912
-0.010585204 -0.078361526 -0.06813262 -0.040358298 0.06960402 -0.06587533 -0.040785536 -0.036035266
-0.08423588 0.030898256 0.074072346 -0.040777523 -0.039697446 -0.024218073 0.06222435 0.0033186048
0.006996235 -0.036193855 0.050459657 -0.0113270795 -0.0016079823 0.006265871 0.013019123 0.011837576
0.025736438 -0.06390467 -0.010293217 0.05452682 -0.058153804 0.022362938 -0.075209655 -0.07589148
0.026672155 -0.0876338 -0.08062016 0.010057204 0.049122434 0.08332171 -0.065688655 -0.0028078787
-0.0055391015 0.05501076 -0.004888989 -0.043350812 0.0062761903 -0.047056362 0.026536975 0.07928852
-0.029741706 -0.040326156 -0.054976128 0.061010674 0.039312635 -0.085223414 -0.028799275 -0.060248185
-0.009572714 -0.0655506 -0.013927663 0.006945161 0.08419008 -0.006178877 0.08463751 0.05892669
-0.07565839 -0.06542845 0.023829443 0.0121080065 -0.051527277 0.038941264 0.04966464 0.024449117
0.029884309 -0.013189989 -0.045336787 -0.065378025 -0.045927975 -0.05384995 0.07333127 -0.04657572
-0.019972349 -0.015092173 -0.05418653 -0.074356705 0.08375508 -0.06288988 0.071495295 0.012371841
0.0031149369 0.050222415 -0.023269247 -0.053064648 0.018839115 -0.062539235 -0.007541222 -0.04806812
-0.070901304 -0.021931924 0.06832364 0.02177124 -0.08199952 -0.00051862246 -0.037145022 -0.0790695
0.07971863 0.057969913 -0.0023171734 0.04939291 -0.009589861 0.04367138 -0.0150035415 0.08076053
0.042168688 0.018585782 0.044490136 0.02942686 -0.048815865 0.021771017 0.012153655 -0.064412706
0.008562983 -0.037429653 -0.08682743 -0.06629081 -0.02377126 -0.00014926807 0.052141275 0.06473322
0.054907445 -0.04933482 -0.030471416 0.033069637 0.07915419 -0.022835687 -0.027302042 -0.030117078
-0.035388697 0.062520035 0.03845011 -0.027471127 0.010685204 0.056804005 -0.044771023 0.014910509
0.023024755 -0.07511903 0.02300664 0.060447372 -0.054076027 0.024486147 -0.040822983 0.077665545
0.07919346 0.06260061 0.0396368 -0.01763421 -0.07416971 0.063131385 -0.012700381 0.05826735
0.031469632 -0.047909413 0.011083475 0.017003529 -0.016913228 0.028129091 0.029209469 -0.03997935
-0.076575264 0.06297516 0.08423235 -0.013849182 0.042211685 0.06425208 0.051995777 -0.05229741
-0.078568116 0.049889915 -0.085785165 0.031609118 0.046136986 -0.072799265 -0.06390393 0.0619159
-0.0005647449 -0.018070206 0.01428449 0.043963626 0.0732105 0.02400065 -0.031406987 -0.00039356132
0.008195914 -0.006139623 0.038979758 0.0020182575 -0.061534133 -0.04114624 -0.07178274 -0.030334273
0.06838923 0.06376944 -0.0875693 0.029016854 0.018921575 0.00019196433 -0.036170375 0.055201724
-0.0055658165 0.06266794 0.07411176 -0.07173417 0.0053772507 0.08432782 -0.0023252503 -0.070416726
0.04005691 0.02337474 -0.055042252 0.042016786 0.0072708554 -0.019532766 -0.00566374 -0.064594515
0.01400374 -0.0022067497 0.006550441 -0.06437901 0.0010894733 0.008733067 -0.020886354 -0.07750688
-0.015318882 0.06355066 -0.0054322407 -0.08366679 0.027674371 -0.07274596 0.014847726 0.07507596

simple_cnn_1/output_probs_1/BiasAdd/ReadVariableOp:0 f4 [10]
00000000: 1412 833a 7c0c 83ba 3b11 83ba 850d 83ba
00000010: ce0d 83ba 7111 83ba b80e 83ba 9611 83ba
00000020: d511 83ba dc07 83ba
0.0009999895 -0.0009998227 -0.0009999642 -0.0009998536 -0.0009998621 -0.0009999705 -0.0009998893 -0.0009999748
-0.0009999821 -0.0009996849
